modules/gesture/key_points_classifier.tflite (tflite, 6672 bytes, 6 tensors)

dense_9/bias f4 [20]
000000 a7 4a 3d bf f4 d8 19 bf 5f 6f 7c be 59 f5 3f bf
       -0.73942035 -0.6009667 -0.2465186 -0.74983746
000010 a2 46 af 3e 2d 84 85 3e 81 70 8d bf cc 05 05 3f
       0.34233576 0.26077405 -1.1049958 0.5196197
000020 b8 69 cf 3e b3 73 cc be e9 e6 80 bf 0d f7 9a be
       0.40510345 -0.39932021 -1.0070468 -0.3026661
000030 c3 f5 ff bc e5 4b 8e bf f8 80 b9 be 2f 14 02 3f
       -0.031245118 -1.1116911 -0.36231208 0.5081205
000040 b5 7b 91 bf 8f 67 d4 3e 4d be 4e bf 6d 43 4e be
       -1.1365877 0.4148526 -0.80759126 -0.20142908

dense_11/bias f4 [9]
000000 e3 1f 93 3d 25 c1 6e bf 28 3a 43 bf 85 8d a8 3b
       0.07183816 -0.93263465 -0.76260614 0.0051438236
000010 cd ce 80 3d eb 3d cd bd 7c 2c 34 3e 73 67 c4 3e
       0.06289444 -0.100215755 0.17595094 0.38360175
000020 9b ea 71 3f
       0.94498605

dense_10/bias f4 [10]
000000 ed 1a 0c 40 53 34 bc 3e d5 29 01 3f f7 d0 55 3c
       2.1891434 0.3675867 0.50454456 0.013050309
000010 0e 35 bd be 46 a3 8f 3f c8 83 cd 3e ec 79 75 3f
       -0.3695454 1.1221702 0.40139604 0.95889163
000020 1f ed 45 bf f2 1c 15 bf
       -0.77314943 -0.5824729

sequential_3/dense_9/MatMul f4 [20, 42]
000000 9c 40 40 3e 60 01 32 bc 86 c4 d1 be c9 b0 92 3e
       0.18774647 -0.010864586 -0.40970248 0.286505
000010 ec 01 8c be dd 2a 20 3e 5d d9 1a 3d 49 03 c7 3d
       -0.27345216 0.15641351 0.03780495 0.097174235
000020 fc 9f 8c 3e 03 28 c7 3d 74 92 92 bd 8b 73 19 bf
       0.27465808 0.097244285 -0.0715684 -0.5994193
000030 6d bb d7 bb 39 66 70 3d 78 4c 25 3d 82 c0 4d 3e
       -0.006583622 0.058691237 0.04035613 0.20092967
000040 b3 7f 8e 3d b6 43 f4 3d 88 c9 a5 bc 80 21 b0 bf
       0.069579504 0.11926977 -0.0202377 -1.3760223
000050 3a d6 81 3d 22 ca b6 bd c1 ba f9 3d 00 cf b5 ba
       0.063396886 -0.089252725 0.121938236 -0.0013870895
000060 d0 11 17 3e 3b 56 84 bc 9f b3 af 3d 91 2f fe bf
       0.14752889 -0.0161544 0.08579182 -1.9858266
000070 8e 0a af 3d bf 8b a2 bd fa c6 ef 3d 61 6b 9c 3d
       0.08546935 -0.07936811 0.11707874 0.076376684
000080 cb 23 c6 3d ce 22 93 3d d2 bf e9 3d 01 67 b2 bf
       0.09674796 0.07184373 0.1141354 -1.3937684
000090 0a c3 f9 3d 16 08 ea 3d 95 1d de 3d 87 6c 5b 3e
       0.12195404 0.114273235 0.10845486 0.21428119
0000a0 0d 27 a6 bf 88 70 7d 3e 40 a6 e9 bc c7 92 55 be
       -1.2980667 0.24749959 -0.028521657 -0.20856772
0000b0 a6 10 d3 3e 8c c3 b6 3f b3 58 e2 3e 0c 50 42 3f
       0.4122364 1.4278426 0.44208297 0.7590339
0000c0 8c 45 af 3f 94 91 06 3f 4b 21 2b 40 bb ca f0 3e
       1.3693099 0.52565885 2.673907 0.4702967
0000d0 71 4f 47 be 3c af fc 3d b2 3f 84 bd 5d 8a f3 3d
       -0.19463898 0.12338111 -0.064574614 0.11891625
0000e0 81 98 eb bd d9 52 dc 3d ab 43 09 be 0e f1 84 bc
       -0.11503697 0.107579894 -0.1340472 -0.016228225
0000f0 84 4f 56 be 4c 55 92 3c b9 4f 85 be 95 e3 16 3d
       -0.2092877 0.017862938 -0.26037386 0.036838133
000100 22 d0 b7 be 9f a8 3e 3d e4 48 f2 be ca 08 31 3c
       -0.3590098 0.04654753 -0.47321236 0.010805318
000110 0f 60 40 be e7 bb ac bd 93 64 67 be 69 35 8d bd
       -0.18786643 -0.08434277 -0.2259696 -0.06894953
000120 73 a1 db be 13 99 03 bf 61 a4 ce be c7 de 32 bf
       -0.42896613 -0.5140545 -0.40359786 -0.6987118
000130 f3 c7 24 3e 42 40 3e be aa 09 89 be 43 51 31 be
       0.160919 -0.185792 -0.26765186 -0.17316155
000140 1f e5 c0 be 9f 99 19 bf c7 cc 02 be a5 37 46 bf
       -0.37674806 -0.6000003 -0.12773429 -0.77428657
000150 00 7c b9 3b 89 08 8a be df e9 ce 3e 27 94 24 c0
       0.005660534 -0.26959637 0.40412804 -2.5715425
000160 cf 2e 90 3e b9 a6 cc be f3 ca 18 3f 8f a8 f7 bd
       0.28160712 -0.3997095 0.59684676 -0.12092697
000170 1c 49 3e 3f db a4 8a bd 76 75 01 bf 61 2d d0 3d
       0.74330306 -0.06769725 -0.50569856 0.10164905
000180 cc 04 41 bf 0a fd e2 3c f9 35 55 bf ec c1 04 bd
       -0.75397944 0.027708549 -0.8328548 -0.0324115
000190 86 5d 6c bf 96 57 6a bc 3a 58 af bf 86 1e cc 3d
       -0.92330205 -0.014303109 -1.36988 0.099667594
0001a0 ac ef 98 be a4 3e ac 3c d3 c6 ab 3e c0 79 48 3d
       -0.29870355 0.021025963 0.33550128 0.048944235
0001b0 ee f4 1f 3f bc b2 ed 3c 7e b5 f2 bf 10 46 ee 3d
       0.6248311 0.029015891 -1.8961637 0.11634457
0001c0 ec d7 00 bf 7a 65 ef 3d 50 94 13 be ea 21 55 3d
       -0.5032947 0.11689277 -0.14412045 0.052034296
0001d0 d3 ba 14 3e dc f5 c4 39 51 5c 88 be 59 fb 46 3e
       0.14524393 0.00037567213 -0.26632932 0.19431819
0001e0 f7 17 bf 3d 43 c8 22 3e 9c f8 d5 3e 49 d9 4e 3d
       0.09330743 0.15896706 0.41791236 0.050500188
0001f0 11 e1 be 3e c0 60 50 bc d4 ff 68 be 24 5d 55 3e
       0.37281087 -0.0127183795 -0.2275384 0.20836312
000200 82 fa af 3c 96 65 11 3f 56 7d dd bd 93 39 4b 3e
       0.021481756 0.5679563 -0.108149216 0.19846182
000210 78 c2 16 3d 8d 50 28 3e 2c b5 99 3e 5f 91 28 3e
       0.036806554 0.16436978 0.30021036 0.16461705
000220 64 ff cd bb 50 b1 57 bf 47 cb 60 bc ee 91 0f bd
       -0.0062865485 -0.8425493 -0.01372034 -0.03505128
000230 e9 64 b3 bd cf dd 3c 3c d1 3c 3d be ee 69 06 3e
       -0.087594815 0.011527493 -0.18480231 0.13126346
000240 4d 87 00 3d 61 f7 d0 bf 83 4b 4c 3c b9 68 9a bd
       0.031379033 -1.6325494 0.012469175 -0.075395055
000250 da 10 8d 3d 3b 63 39 3b a0 17 26 3d c5 e7 11 bc
       0.0688798 0.0028287906 0.040549874 -0.008905356
000260 6a 47 98 3b 42 fb e5 bf 50 16 68 bd 78 d6 3f bd
       0.004647185 -1.7967303 -0.056661904 -0.046835393
000270 9f 5a 2d bd c7 7b ab 3d 4e e2 d0 bd 4b 9c 96 3d
       -0.04232275 0.08373218 -0.10199414 0.07354029
000280 b5 d8 08 be 77 3a bb bf e8 30 bf bd 6d 9d e0 3d
       -0.13363917 -1.4627217 -0.093355 0.109675266
000290 04 c8 5d be 69 5b 5d 3e f6 af 63 3f b6 50 84 3e
       -0.21658331 0.21616901 0.8894037 0.25842828
0002a0 80 d3 7b 3d 6f 9e 09 be 17 5c 2d 3f c7 89 8b bf
       0.061481 -0.13439344 0.6771864 -1.0901421
0002b0 ca 39 a8 3d e1 82 33 bf 66 f1 71 3e 9b c5 2c bf
       0.082141474 -0.7012158 0.23627242 -0.6748902
0002c0 e0 09 f3 3e cf d4 09 bf 78 b6 00 be f4 9d 0a bf
       0.47468472 -0.53840345 -0.12569606 -0.5414727
0002d0 85 54 d7 bd 0a b2 bc 3c 1c 5d 55 be 19 34 b7 3d
       -0.10514168 0.023034114 -0.208363 0.08945484
0002e0 d9 79 40 be 9a 7a ae 3d 21 df da bd f1 46 ab bd
       -0.18796481 0.08519478 -0.1068709 -0.083631404
0002f0 d1 33 bb bd ea 4a b6 3e 55 a7 79 bb 6b 2b b2 3e
       -0.091407426 0.3560403 -0.0038094122 0.3479875
000300 ab 70 6f 3c 82 50 c8 3e a7 e9 2d 3d 7b 37 a0 3f
       0.0146142645 0.39123923 0.042459156 1.2516931
000310 9a 35 b6 bc a6 e2 15 3f 87 de 23 3c d5 bd 0d 3f
       -0.022242356 0.58548963 0.010001785 0.55367786
000320 78 e7 e0 3d 88 20 20 3f 51 45 b9 3d 79 ed 54 40
       0.10981649 0.6254964 0.09046424 3.3269942
000330 e4 17 9f bd 2f 77 e7 3f 68 a6 5d be 80 cc 6f 3f
       -0.07768229 1.8083247 -0.2164551 0.9367142
000340 10 b1 97 be 80 4f cc 3e 0c b5 4f 3e c0 c9 1a 3d
       -0.29627275 0.39904404 0.20283908 0.03779006
000350 36 61 88 bf 99 e9 37 3e 2a dc 20 bf 77 39 a3 3e
       -1.0654666 0.17960204 -0.62835944 0.3187978
000360 9d e7 b3 be 5b db 36 3e 24 92 83 3e ac d6 14 bc
       -0.35137644 0.17857115 0.25697434 -0.009084385
000370 fa 84 43 bf 60 ed d2 3c 42 70 56 bf 0f c3 96 3e
       -0.7637478 0.025747955 -0.8376504 0.29445693
000380 28 5d 0f bf 82 21 e0 3e 59 da a2 be 98 a4 9a 3e
       -0.5600152 0.43775564 -0.3180721 0.302037
000390 da 0d 3f bf d2 64 12 3e b9 17 01 bf 49 9e 0c 3f
       -0.7463051 0.14296272 -0.5042682 0.54929024
0003a0 ba 5d 86 be 57 96 2e 3f 5e 5a 28 3c 0a 93 42 3f
       -0.26243383 0.6819815 0.0102754515 0.76005614
0003b0 cc 8b 11 bf cd c3 47 3f 38 58 be be 74 44 d5 3e
       -0.5685394 0.78033143 -0.3717668 0.41653788
0003c0 a6 5a 47 be a6 38 a0 3e 28 9d 2e 3d 2c b1 28 3f
       -0.19468173 0.3129322 0.042630345 0.6589534
0003d0 75 65 97 be 5d 31 76 3f 67 a6 3f be ee fc e1 3e
       -0.29569593 0.9616907 -0.18715821 0.44138283
0003e0 4b 5f 4d 3e 7a 50 e8 3d 5a f8 06 3d 92 21 86 be
       0.20055883 0.11343475 0.03295169 -0.26197487
0003f0 d8 68 10 3d 10 1e 0e 3d 94 e3 64 3e 97 df 2d 3e
       0.035256237 0.03469664 0.22352439 0.16979824

sequential_3/dense_10/MatMul f4 [10, 20]
000000 9f 42 48 3f 67 da cc 3d ba 06 b5 bd b5 a1 68 3f
       0.78226656 0.100025944 -0.088391736 0.90871745
000010 d1 c1 ff bf bd f3 c1 bf 03 3a 12 bf 0e 25 68 be
       -1.9981023 -1.5152508 -0.5711977 -0.22670385
000020 86 d4 2d 3d 91 aa 93 3f 49 67 70 bf ea 51 73 bd
       0.042439006 1.1536428 -0.939076 -0.05940429
000030 13 6d 14 3e 58 16 a0 3f bb 14 7a 3e 2b fb b2 bd
       0.14494734 1.2506819 0.2442197 -0.08739313
000040 5b eb 95 3c 40 3f c9 bb 5a db 03 c0 99 29 9d 3e
       0.018300703 -0.006141573 -2.0602632 0.306958
000050 ed f6 19 3f 24 8c 93 3f b7 9f 32 3e f8 18 2e 3f
       0.60142404 1.1527143 0.17443739 0.6800685
000060 3d 12 6c bd 34 fa c9 3d 38 d3 09 40 ff 8a 85 bd
       -0.05763458 0.098621756 2.1535168 -0.06520652
000070 b8 9c 75 be f1 c1 79 3f d9 6e ee 3f d0 a4 f2 3e
       -0.23985565 0.97561556 1.8627578 0.47391367
000080 41 29 d9 3e 9a 15 7f 3f 33 02 9e 3d 31 5f 69 3f
       0.42414287 0.99642336 0.07715263 0.91160876
000090 b9 76 f3 3f cb 51 aa bd b5 3e 98 3f bf c8 9d 3e
       1.9020606 -0.08316382 1.1894137 0.3081722
0000a0 15 d6 e8 3e f1 13 d3 3e 7d 47 ef bd e1 75 db 3e
       0.45475832 0.41226152 -0.11683557 0.42863372
0000b0 f8 c9 ee 3e 19 bf bb 3e 9d be f5 3e f4 91 12 bf
       0.46638465 0.36669233 0.4799699 -0.57253957
0000c0 03 15 96 3c 8a 10 fa bf 6a ae 2c 3f 37 68 55 bf
       0.018320566 -1.9536297 0.67453635 -0.83362144
0000d0 bc 9b 0d 3f 89 d7 e4 bf 14 78 30 3f ac 85 e5 3e
       0.55315757 -1.7878276 0.68933225 0.44828546
0000e0 9e 74 05 3f 63 33 66 be d9 78 25 3e 38 61 8e 3e
       0.5213107 -0.2248054 0.16159381 0.27808547
0000f0 6e 23 10 3f 1a 28 d0 bd 34 d8 2d 3f 74 8c 0c 3f
       0.5630406 -0.10163899 0.67908025 0.54901814
000100 59 09 cb 3f a1 df 74 3e b0 cc 5d 3e d6 d8 16 3f
       1.5862228 0.23913433 0.21660113 0.58924615
000110 8b 0a d0 3e 61 4a 96 3d b1 0d 70 3d 50 e1 65 3f
       0.40633044 0.073384054 0.058606807 0.89796925
000120 6a 63 89 3f d8 18 19 be 6d 5c 5a 3f d4 c6 be 3f
       1.0733464 -0.14950883 0.8529728 1.4904428
000130 c2 dc aa 3d f9 a7 ab 3f 22 33 0f bf 9f 7c ab 3f
       0.083428875 1.3410636 -0.559374 1.3397406
000140 b0 59 0e 3d c5 70 a4 3f 30 54 34 3e 31 ec 2f 3d
       0.0347535 1.2846915 0.1761024 0.04294986
000150 65 b3 f5 bd 6b 0d 80 3e a4 30 21 bf 25 24 84 3f
       -0.119971074 0.25010237 -0.62964845 1.032353
000160 c5 1a 07 be cb ba 4a 3f f1 1c fe be e0 ef ba 3e
       -0.13193806 0.79191273 -0.49631456 0.36511135
000170 95 61 8e bd 03 ec 89 bf 28 10 c6 bc 4b c9 36 3f
       -0.06952206 -1.077515 -0.024177626 0.714009
000180 89 0d ac be 9c 1b ad bc 20 ca 00 3f fc 51 9c 3d
       -0.33604077 -0.02113133 0.5030842 0.07632825
000190 0b 55 3c bd a2 af 86 3d f6 e3 9e 3f 3d c2 f9 bb
       -0.04597954 0.06576468 1.2413318 -0.007622032
0001a0 1c 5c 70 be 95 52 70 3f 43 f4 f6 3c a4 96 e1 3e
       -0.23472637 0.9387601 0.03014577 0.44060242
0001b0 54 b6 c0 3e 16 05 77 3e 50 7a 1f 3d ac 4e d4 3c
       0.37639105 0.24123034 0.038935006 0.02591642
0001c0 c1 54 25 3f 95 ef cf 3d 34 51 52 3f 07 df a2 3e
       0.6458245 0.101531185 0.82155156 0.3181078
0001d0 8b 78 74 3c 67 e9 53 3f 46 f7 21 be 3e 55 87 bf
       0.014921318 0.8277802 -0.15816984 -1.0572889
0001e0 24 50 58 bd 2b 13 2a 3e ba 83 97 3f 36 a4 92 bc
       -0.052810803 0.16608874 1.1837075 -0.017900568
0001f0 2b d0 72 bf 0d 4e ca bd c7 3d 1b 3f 31 5b b6 3e
       -0.9484889 -0.09878168 0.6064114 0.3561645
000200 42 59 20 bf a6 03 46 3c 5d 1a d1 3d d7 70 df be
       -0.62636197 0.012085831 0.102101065 -0.43640777
000210 d5 95 7f 3f dc a2 1a bd 3c 78 93 3f e4 63 e8 3c
       0.99838 -0.03775297 1.1521068 0.028367944
000220 2d 23 44 3f d8 09 08 3f 1c 01 4e 3e 33 cb 24 be
       0.76616174 0.5314002 0.2011761 -0.1609314
000230 40 ab 67 3e 22 11 f4 bf bb ee b9 3e 8a 7d 69 3e
       0.2262392 -1.9067729 0.3631495 0.22801796
000240 aa 25 a6 3f 5b 2f 1a 3f 08 e2 8f 3e 82 8a 57 bf
       1.2980244 0.6022851 0.28102136 -0.8419572
000250 ed 51 ae 3f b2 6d 6b 3e a9 1c 0d be 22 50 e4 3e
       1.3618752 0.22991064 -0.13780464 0.44592386
000260 5b 02 81 3e 97 31 9a 3d 7a 14 0e 3e e9 23 4c 3e
       0.2519711 0.0752899 0.13874999 0.19935574
000270 fa 7c 0f 3e df 4c af 3f 48 29 26 3f 8e 0a 96 3e
       0.14012519 1.3695334 0.6490674 0.29304928
000280 0b 50 e5 bf 11 f6 ba bd 4f d4 95 3d 98 e3 bd bf
       -1.7915052 -0.09128965 0.07315885 -1.4835081
000290 eb f2 15 3f 05 bc ee 3e 81 a0 6b bf 7d 09 9a 3d
       0.5857379 0.46627823 -0.92041785 0.07521341
0002a0 fc f3 6a be 39 27 cf bd a7 2e ff be 4b d0 6b be
       -0.22944635 -0.10114903 -0.4984028 -0.23028676
0002b0 ea 55 55 3f 4c e4 49 bf ca 3d 07 3f a7 d4 9d be
       0.8333422 -0.7886398 0.5282866 -0.30826303
0002c0 bf 92 b0 be a7 f5 b5 be ea 64 d9 3e 12 58 d9 3e
       -0.34486958 -0.3553898 0.42459804 0.42450005
0002d0 3b b6 ee ba 76 3e 1d 3d 12 8c b7 bd a6 02 09 bd
       -0.0018212268 0.038389646 -0.08962263 -0.03344979
0002e0 98 27 53 bf 2f 87 08 3f 0c 62 0a be a7 82 80 3f
       -0.8248229 0.53331274 -0.13513964 1.0039872
0002f0 e4 c7 e1 bd df 35 31 3f bb 76 b4 3c d7 16 ec bc
       -0.11024454 0.69222826 0.022029271 -0.028819485
000300 a1 52 e5 bb b8 89 92 3f 61 9f c9 3e 59 65 10 3f
       -0.0069983755 1.1448278 0.3937941 0.56404644
000310 61 8b f9 bc ff 94 83 3e 8d b0 03 bf 7e 2c ae 3d
       -0.030461969 0.25699612 -0.5144127 0.0850458

sequential_3/dense_11/MatMul f4 [9, 10]
000000 c5 2b 82 bf 1c 7f da bf 87 30 4d be 5c e2 03 3f
       -1.0169607 -1.7070041 -0.20038043 0.5151727
000010 53 de cd 3d 7e 8d 41 bc f2 31 2a 3e 2d 53 69 3f
       0.100521706 -0.0118135195 0.16620615 0.9114254
000020 3b 9b 00 3f a7 05 ca be 32 80 29 bf b0 63 05 bf
       0.5023686 -0.39457437 -0.66211236 -0.52105236
000030 9e 09 e6 be 4c a3 8d 3e 4d 4c a0 3f 2e b7 ef bb
       -0.44929212 0.27663648 1.2523285 -0.007315538
000040 fd fd b6 3d 5f ca a3 be 97 db 8c 3f 63 70 21 3f
       0.08935163 -0.31990334 1.1004514 0.63062114
000050 5c eb b6 bf f1 2a 07 bf ff 93 3c 3f 90 73 07 3f
       -1.4290576 -0.527999 0.73663324 0.5291071
000060 4a 2c 72 bf fa 4b 9c 3e 23 f0 bb bd 51 70 2d 3f
       -0.9459883 0.30526716 -0.09176662 0.67749506
000070 7a d5 31 bf bd 3c 3c bf 82 8a 0c 3d ed e2 0e 3f
       -0.69466364 -0.7353018 0.03431178 0.5581501
000080 87 7d e7 be 1b 9e a8 3e 3a c2 7b bf 12 c5 89 bd
       -0.45212957 0.32933125 -0.9834324 -0.06727041
000090 77 06 01 3f 04 49 59 bf cf ac 00 bf 6c 9f e7 bd
       0.5040049 -0.8487704 -0.50263685 -0.11309704
0000a0 83 77 b7 3d ac 6c 59 3f 5b 9d 2e be cd b2 44 bf
       0.08958342 0.84931445 -0.17052214 -0.7683533
0000b0 e2 de 28 3d fb 32 17 c0 a1 d1 e4 be a2 5d f0 3e
       0.041228183 -2.3624866 -0.44691184 0.46946436
0000c0 8d c1 fa be 65 37 f9 3e ad b7 33 3f 79 47 2b bf
       -0.48975793 0.48675075 0.7020214 -0.66905934
0000d0 99 fe 0a bf ed eb 8f 3e 1e f3 40 bf 90 1b 02 3e
       -0.54294735 0.28109685 -0.7537097 0.12705827
0000e0 6a 89 bf 3d 13 9c cf 3d 27 2b 98 bf 31 7d 8f 3d
       0.093523815 0.10137191 -1.1888169 0.070063
0000f0 e1 6c a7 be 6e 4a 79 bc 37 66 a1 3f 62 42 02 be
       -0.32700256 -0.015215499 1.2609318 -0.12720636
000100 48 c3 a4 bb 39 0b 3f bf 33 33 4d 3f 69 bf a6 bd
       -0.005028162 -0.746265 0.8015625 -0.08141977
000110 bd a1 56 bf f5 44 ef bf cf 3c a1 be 92 f4 00 3f
       -0.83840543 -1.8692919 -0.31491706 0.50373185
000120 8d 43 e9 be 09 3b 08 c0 c1 ea 4a bf 56 a1 35 3f
       -0.4555935 -2.1286032 -0.79264456 0.70949304
000130 2c 80 5e 3f f0 50 81 be e8 00 28 3f e1 17 93 3e
       0.86914325 -0.25257063 0.6562638 0.28729156
000140 3e 54 cf 3f ca 7f 8d bf 73 75 b5 3d ff 28 76 bf
       1.6197584 -1.1054623 0.08860292 -0.96156305
000150 ba b8 65 3e a4 6f ea bf 39 4a e1 bf 45 43 b9 3e
       0.22433749 -1.831532 -1.7600776 0.36184135
000160 49 97 5d bf f6 4b 2e 3f
       -0.8655897 0.6808466
